Lorenz_63/Identification/RINN_L63_dt_integration_02_order_11.pt (torch, 7852 bytes, 15 tensors)

a f4 [1, 11, 11]
000000 00 00 00 00 00 00 00 00 00 00 00 00 00 00 00 00
       0.0 0.0 0.0 0.0
000010 00 00 00 00 00 00 00 00 00 00 00 00 00 00 00 00
       0.0 0.0 0.0 0.0
000020 00 00 00 00 00 00 00 00 00 00 00 00 00 00 00 00
       0.0 0.0 0.0 0.0
000030 00 00 00 00 00 00 00 00 00 00 00 00 00 00 00 00
       0.0 0.0 0.0 0.0
000040 00 00 00 00 00 00 00 00 00 00 00 00 00 00 00 00
       0.0 0.0 0.0 0.0
000050 00 00 00 00 00 00 00 00 00 00 00 00 47 11 0b c0
       0.0 0.0 0.0 -2.1729295
000060 00 00 00 00 00 00 00 00 00 00 00 00 00 00 00 00
       0.0 0.0 0.0 0.0
000070 00 00 00 00 00 00 00 00 00 00 00 00 00 00 00 00
       0.0 0.0 0.0 0.0
000080 00 00 00 00 00 00 00 00 4f 22 0b c0 e4 f5 4e bf
       0.0 0.0 -2.173969 -0.8084395
000090 00 00 00 00 00 00 00 00 00 00 00 00 00 00 00 00
       0.0 0.0 0.0 0.0
0000a0 00 00 00 00 00 00 00 00 00 00 00 00 00 00 00 00
       0.0 0.0 0.0 0.0
0000b0 00 00 00 00 22 5d 61 40 3b f9 6d bf 16 de 5d bf
       0.0 3.5213094 -0.9295842 -0.86667
0000c0 00 00 00 00 00 00 00 00 00 00 00 00 00 00 00 00
       0.0 0.0 0.0 0.0
0000d0 00 00 00 00 00 00 00 00 00 00 00 00 00 00 00 00
       0.0 0.0 0.0 0.0
0000e0 fb 4e 51 3f f4 5c e6 3e 9d 99 bb 3d 17 43 bc 3d
       0.8176114 0.44992793 0.09160159 0.09192484
0000f0 00 00 00 00 00 00 00 00 00 00 00 00 00 00 00 00
       0.0 0.0 0.0 0.0
000100 00 00 00 00 00 00 00 00 00 00 00 00 1d e2 be be
       0.0 0.0 0.0 -0.37281886
000110 8b 94 78 be 9a 63 ad bc 91 09 7a 3d 3f fb 59 3e
       -0.24275415 -0.021165658 0.06104428 0.21287249
000120 00 00 00 00 00 00 00 00 00 00 00 00 00 00 00 00
       0.0 0.0 0.0 0.0
000130 00 00 00 00 00 00 00 00 e8 1f 3e 3d 7c 8c 34 be
       0.0 0.0 0.046417147 -0.17631716
000140 e1 34 94 bc a7 7f 32 bc 25 42 9f 3d 1d fd 93 3e
       -0.01809162 -0.0108946925 0.07776288 0.28904048
000150 00 00 00 00 00 00 00 00 00 00 00 00 00 00 00 00
       0.0 0.0 0.0 0.0
000160 00 00 00 00 59 42 ee bc b5 7a e6 3e e2 57 29 be
       0.0 -0.029084371 0.45015493 -0.16537431
000170 4d 82 b2 bd bc a4 27 be 55 97 de 3d d1 cf 0a 3f
       -0.08716259 -0.16371435 0.10868708 0.5422335
000180 00 00 00 00 00 00 00 00 00 00 00 00 00 00 00 00
       0.0 0.0 0.0 0.0
000190 39 f7 72 3e 90 f7 a4 be e4 78 de bd 6d a1 60 3e
       0.2372712 -0.32220125 -0.10862902 0.21936579
0001a0 c9 09 ff 3e e0 ff db be 1d 65 b2 3e 71 cc 8f 3e
       0.49812153 -0.42968655 0.34842768 0.28085664
0001b0 00 00 00 00 00 00 00 00 00 00 00 00 56 cd 91 3e
       0.0 0.0 0.0 0.2847697
0001c0 de 22 9e 3e 14 23 d0 bd 31 05 44 3e 6e 96 ad 3e
       0.30885977 -0.101629406 0.19142605 0.3390383
0001d0 a3 c6 88 3d ab 95 a6 3d a9 34 10 3e de b7 5e 3e
       0.06678512 0.08134016 0.14082588 0.21749827
0001e0 00 00 00 00
       0.0

b f4 [1, 11]
000000 6c b9 0b 39 c1 4d 0b 39 41 87 c2 3d f7 a6 ef 38
       0.00013325148 0.00013285039 0.09498454 0.00011427508
000010 85 7f af 39 23 f9 ff 3c 08 f4 c9 3e 9e bb 81 3d
       0.0003347361 0.031246727 0.39443994 0.06334613
000020 45 9c 8d 3e 6f 8d b3 3c f8 f8 ee 3d
       0.27658287 0.021918027 0.11668581

c f4 [1, 11]
000000 00 00 00 00 40 24 44 3b 77 e1 44 3b fc 48 41 3b
       0.0 0.0029928833 0.0030041614 0.0029492965
000010 d1 c2 78 3e 3c c1 78 3e f4 e5 a6 3e a5 17 fe 3e
       0.24293067 0.24292463 0.32597315 0.49627414
000020 43 2a 37 3f 56 24 56 3f 26 ff 7f 3f
       0.7154886 0.83649194 0.999987

Dyn_net.linearCell.weight f4 [3, 3]
000000 69 b1 50 40 cc a6 00 3e 42 c2 33 bf 5b c9 49 40
       3.2608283 0.12563628 -0.7021829 3.1529148
000010 41 a9 62 bf 8c 65 d2 3e 31 5d e1 3e c0 5d 27 40
       -0.8853951 0.410931 0.44016412 2.615097
000020 87 41 8b bb
       -0.004249755

Dyn_net.linearCell.bias f4 [3]
000000 86 c8 a7 3e 99 cb 9c bd 82 55 a4 bc
       0.32770175 -0.07656021 -0.020060305

Dyn_net.BlinearCell1.0.weight f4 [1, 3]
000000 20 4c 24 bf de b6 1f 3e fd de cf 3d
       -0.6417866 0.15597102 0.101499535

Dyn_net.BlinearCell1.1.weight f4 [1, 3]
000000 c8 e5 45 b7 67 81 ca bb 9e c3 5b bf
       -1.1795615e-05 -0.0061799767 -0.85845363

Dyn_net.BlinearCell1.2.weight f4 [1, 3]
000000 1b 1c cb 3e 5d 74 18 3f ac 8f 9e be
       0.3966988 0.59552556 -0.30968988

Dyn_net.BlinearCell2.0.weight f4 [1, 3]
000000 ca 68 b0 3e e7 eb 40 bf d3 f2 c1 3e
       0.34454948 -0.7535996 0.37880573

Dyn_net.BlinearCell2.1.weight f4 [1, 3]
000000 10 da 7f bf 37 e0 86 bc 6a 7a 03 b8
       -0.9994211 -0.016464336 -3.134684e-05

Dyn_net.BlinearCell2.2.weight f4 [1, 3]
000000 34 1e 7a bf f4 e9 a1 be dd d0 3a be
       -0.97702336 -0.31623805 -0.18243738

Dyn_net.transLayers.0.weight f4 [3, 6]
000000 e5 16 01 40 85 f5 18 3f 6d 3e bf be 0f a8 39 3f
       2.0170224 0.59749633 -0.37352315 0.7252206
000010 e4 67 1f 3c 53 02 30 bf d2 41 b7 be a1 2f cb 3e
       0.009729359 -0.68753546 -0.35792404 0.39684775
000020 cc be 23 c0 e9 87 d4 bd 95 11 a5 3e 94 5f c9 3d
       -2.5585203 -0.10377485 0.32239977 0.09832683
000030 81 a2 f8 bf ba 6f 2f c0 1c 08 23 be 4e 5f 49 3e
       -1.9424592 -2.7411942 -0.15921062 0.19665262
000040 47 97 32 3f 70 07 3e be
       0.6976208 -0.18557525

Dyn_net.transLayers.0.bias f4 [3]
000000 0c 43 be be eb dc 9a be 0e e5 87 be
       -0.37160528 -0.30246672 -0.26541942

Dyn_net.outputLayer.weight f4 [3, 3]
000000 08 01 9f be da 82 96 bf ce 00 07 3f c3 5f b7 3e
       -0.31055474 -1.1758683 0.527356 0.35815248
000010 da 47 ae be 2a 68 bd bf 8b e9 65 3f f2 16 33 3e
       -0.34039193 -1.4797413 0.89809483 0.17489222
000020 05 23 d5 3e
       0.4162828

Dyn_net.outputLayer.bias f4 [3]
000000 9a 5c 94 bb 30 f0 01 3f 59 b9 a9 be
       -0.0045276405 0.5075712 -0.33149222
