Lorenz_63/Identification/RINN_L63_dt_integration_04_order_11.pt (torch, 7852 bytes, 15 tensors)

a f4 [1, 11, 11]
00000000: 0000 0000 0000 0000 0000 0000 0000 0000
00000010: 0000 0000 0000 0000 0000 0000 0000 0000
00000020: 0000 0000 0000 0000 0000 0000 0000 0000
00000030: 0000 0000 0000 0000 0000 0000 0000 0000
00000040: 0000 0000 0000 0000 0000 0000 0000 0000
00000050: 0000 0000 0000 0000 0000 0000 8625 4c3e
00000060: 0000 0000 0000 0000 0000 0000 0000 0000
00000070: 0000 0000 0000 0000 0000 0000 0000 0000
00000080: 0000 0000 0000 0000 fffc 1e3d 9377 353e
00000090: 0000 0000 0000 0000 0000 0000 0000 0000
000000a0: 0000 0000 0000 0000 0000 0000 0000 0000
000000b0: 0000 0000 c609 433d 23bc 9c3d 1eae 4e3e
000000c0: 0000 0000 0000 0000 0000 0000 0000 0000
000000d0: 0000 0000 0000 0000 0000 0000 0000 0000
000000e0: b8e1 bc3d bd7d af3d 7a09 833d 0524 4c3e
000000f0: 0000 0000 0000 0000 0000 0000 0000 0000
00000100: 0000 0000 0000 0000 0000 0000 2ee4 f73d
00000110: 95be b43d 7c6a c63d 7d0d 8a3c b816 623e
00000120: 0000 0000 0000 0000 0000 0000 0000 0000
00000130: 0000 0000 0000 0000 0576 f03d 7e7b dc3d
00000140: 7f65 9b3d 04cc ff3d c82a 803d 7aff 353e
00000150: 0000 0000 0000 0000 0000 0000 0000 0000
00000160: 0000 0000 136a 923d 9e7b 003e c6ed de3d
00000170: 7baf 9b3d 8550 cf3d 8e61 843d ce00 4e3e
00000180: 0000 0000 0000 0000 0000 0000 0000 0000
00000190: 9683 e03d 8caa 8e3d 197d e13d 83ef c13d
000001a0: f410 193e d38a 933d 94e8 d83d aa05 b63d
000001b0: 0000 0000 0000 0000 0000 0000 a7bd eb3d
000001c0: bfab 6e3d 35e8 2b3e 6ad3 b13d a015 1a3e
000001d0: d33e c13c 0350 cd3d 023a c4bd 30c5 ba3e
000001e0: 0000 0000
0.0 0.0 0.0 0.0 0.0 0.0 0.0 0.0
0.0 0.0 0.0 0.0 0.0 0.0 0.0 0.0
0.0 0.0 0.0 0.0 0.0 0.0 0.0 0.19936189
0.0 0.0 0.0 0.0 0.0 0.0 0.0 0.0
0.0 0.0 0.038815495 0.17721395 0.0 0.0 0.0 0.0
0.0 0.0 0.0 0.0 0.0 0.047616743 0.07653072 0.20183608
0.0 0.0 0.0 0.0 0.0 0.0 0.0 0.0
0.0922274 0.085689045 0.06398292 0.19935615 0.0 0.0 0.0 0.0
0.0 0.0 0.0 0.12104069 0.08825413 0.09688279 0.016852135 0.22078979
0.0 0.0 0.0 0.0 0.0 0.0 0.117412604 0.10765742
0.07587718 0.12490085 0.0625816 0.17773238 0.0 0.0 0.0 0.0
0.0 0.07149138 0.12547156 0.108851954 0.076018296 0.1012278 0.064639196 0.20117494
0.0 0.0 0.0 0.0 0.10962598 0.06966123 0.110101886 0.09469511
0.14947873 0.07204213 0.10591236 0.08887799 0.0 0.0 0.0 0.11510783
0.05826926 0.16787799 0.08682902 0.15047312 0.023589527 0.10025027 -0.095813766 0.36478567
0.0

b f4 [1, 11]
00000000: ff87 2d3d 9129 d03d 0a02 a73d f445 f63d
00000010: 0545 b93d f36e 0b3e 331d 8f3d e94f f53d
00000020: 6000 1f3d 27b5 173e d39f 503d
0.042366024 0.10164178 0.08154686 0.12025061 0.090463676 0.13616543 0.06987991 0.11978132
0.038818717 0.14815198 0.05093367

c f4 [1, 11]
00000000: 0000 0000 7e01 083e d971 3c3e 1894 913e
00000010: c7f4 c03e 63cc fd3e e5fc 263f 15fd 293f
00000020: f69b 493f c11f 5a3f 0000 803f
0.0 0.13281819 0.18402804 0.284333 0.3768675 0.49569997 0.65229636 0.664018
0.787536 0.852047 1.0

Dyn_net.linearCell.weight f4 [3, 3]
00000000: 165a 9740 ec04 06c0 79e7 42bf 28f3 983f
00000010: 107a 353f 74bc 6b3f 41a8 0040 67d9 f03f
00000020: 7376 10be
4.729747 -2.0940504 -0.7613445 1.1949205 0.7088938 0.9208443 2.0102694 1.8816346
-0.14107685

Dyn_net.linearCell.bias f4 [3]
00000000: 5f12 f63e 62d6 5d3f 5985 f93d
0.4806089 0.8665525 0.12183637

Dyn_net.BlinearCell1.0.weight f4 [1, 3]
00000000: d845 88bf 275c b43d 554d 07bd
-1.0646315 0.08806639 -0.033032734

Dyn_net.BlinearCell1.1.weight f4 [1, 3]
00000000: 27e3 df3b 11ee f73d f3e1 50bf
0.0068324986 0.121059544 -0.8159477

Dyn_net.BlinearCell1.2.weight f4 [1, 3]
00000000: e194 203f bab7 923e 1e30 30be
0.6272717 0.28655797 -0.17205855

Dyn_net.BlinearCell2.0.weight f4 [1, 3]
00000000: 6700 edbc 3eb5 413d 21ad 033f
-0.028930856 0.047291987 0.5143605

Dyn_net.BlinearCell2.1.weight f4 [1, 3]
00000000: dedf 92bf 9b4e 59bd cd68 d93b
-1.1474569 -0.05305348 0.0066348077

Dyn_net.BlinearCell2.2.weight f4 [1, 3]
00000000: 43d1 76bf c111 65bf 2f49 c9be
-0.9641306 -0.89480215 -0.39313647

Dyn_net.transLayers.0.weight f4 [3, 6]
00000000: aed6 1b3f d6bc 09bf 24ba 313f c6b9 073f
00000010: 06f5 e63d e59a 9bbf a190 01be 64c4 27bf
00000020: 5e94 37c0 fc6a 96be 2749 ac3e 16f7 983d
00000030: 6393 febf ab32 1fbf d5fa 58bf fd47 893e
00000040: 4dc6 173f cd98 cabd
0.6087445 -0.53803766 0.69424653 0.5301784 0.11277203 -1.2156645 -0.12652828 -0.65534043
-2.8684306 -0.29378498 0.3364956 0.07469003 -1.9888729 -0.6218669 -0.8475774 0.26812735
0.5928696 -0.09892426

Dyn_net.transLayers.0.bias f4 [3]
00000000: 28ee 33c0 29ad dabe 693e 2ebf
-2.811411 -0.42710236 -0.6806398

Dyn_net.outputLayer.weight f4 [3, 3]
00000000: 525a febd c687 8cbf 1d99 853f 4b97 42bc
00000010: 0492 2cbf c61e bcbf 51ee 053f ac76 533b
00000020: d22d fd3d
-0.12419571 -1.0978935 1.0437351 -0.011876891 -0.674103 -1.4696891 0.52316767 0.003226678
0.12362255

Dyn_net.outputLayer.bias f4 [3]
00000000: 6dec b1bf b506 e53f d793 39c0
-1.3900276 1.7892672 -2.8996484
