Lorenz_63/RINN_L63_dt_integration_03_order_11_.pt (torch, 7852 bytes, 15 tensors)

a f4 [1, 11, 11]
0	0x00000000	0.0
1	0x00000000	0.0
2	0x00000000	0.0
3	0x00000000	0.0
4	0x00000000	0.0
5	0x00000000	0.0
6	0x00000000	0.0
7	0x00000000	0.0
8	0x00000000	0.0
9	0x00000000	0.0
10	0x00000000	0.0
11	0x00000000	0.0
12	0x00000000	0.0
13	0x00000000	0.0
14	0x00000000	0.0
15	0x00000000	0.0
16	0x00000000	0.0
17	0x00000000	0.0
18	0x00000000	0.0
19	0x00000000	0.0
20	0x00000000	0.0
21	0x00000000	0.0
22	0x00000000	0.0
23	0x3dc937e1	0.09825111
24	0x00000000	0.0
25	0x00000000	0.0
26	0x00000000	0.0
27	0x00000000	0.0
28	0x00000000	0.0
29	0x00000000	0.0
30	0x00000000	0.0
31	0x00000000	0.0
32	0x00000000	0.0
33	0x00000000	0.0
34	0x3b9c6887	0.004773203
35	0x3ec66ba7	0.38754007
36	0x00000000	0.0
37	0x00000000	0.0
38	0x00000000	0.0
39	0x00000000	0.0
40	0x00000000	0.0
41	0x00000000	0.0
42	0x00000000	0.0
43	0x00000000	0.0
44	0x00000000	0.0
45	0xbe527021	-0.20550586
46	0x3f4b5471	0.7942572
47	0xbe2cf34c	-0.16889685
48	0x00000000	0.0
49	0x00000000	0.0
50	0x00000000	0.0
51	0x00000000	0.0
52	0x00000000	0.0
53	0x00000000	0.0
54	0x00000000	0.0
55	0x00000000	0.0
56	0x3f084974	0.5323708
57	0xbe4fe474	-0.20301992
58	0x3eef1f2b	0.46703467
59	0xbdff2399	-0.124579616
60	0x00000000	0.0
61	0x00000000	0.0
62	0x00000000	0.0
63	0x00000000	0.0
64	0x00000000	0.0
65	0x00000000	0.0
66	0x00000000	0.0
67	0xbf1a2a13	-0.6022045
68	0xbeb46438	-0.3523271
69	0xbf11bce3	-0.56928843
70	0x3e8b965f	0.27263162
71	0x3f044034	0.51660466
72	0x00000000	0.0
73	0x00000000	0.0
74	0x00000000	0.0
75	0x00000000	0.0
76	0x00000000	0.0
77	0x00000000	0.0
78	0xbf055a2c	-0.52090716
79	0x3e8c4f80	0.27404404
80	0xbe84e7fc	-0.2595824
81	0x3e82ca58	0.25545
82	0x3ec3e8fd	0.38263693
83	0x3e0898bb	0.13339512
84	0x00000000	0.0
85	0x00000000	0.0
86	0x00000000	0.0
87	0x00000000	0.0
88	0x00000000	0.0
89	0xbd953bd7	-0.07286804
90	0x3d8db25f	0.06918787
91	0xbe379583	-0.17928128
92	0x3e534195	0.20630486
93	0x3e88990d	0.26679268
94	0x3d070109	0.03295997
95	0x3e206d09	0.15666594
96	0x00000000	0.0
97	0x00000000	0.0
98	0x00000000	0.0
99	0x00000000	0.0
100	0xbebc579c	-0.3678559
101	0x3ef0ed79	0.47056177
102	0xbf069b24	-0.52580476
103	0x3d0714ff	0.032979008
104	0x3ee97ebb	0.456045
105	0xbda68a8a	-0.08131893
106	0xbdf801fe	-0.12109755
107	0x3f1c8b7a	0.61150324
108	0x00000000	0.0
109	0x00000000	0.0
110	0x00000000	0.0
111	0x3ebcafff	0.36853024
112	0x3c4bbbe6	0.012434935
113	0x3d7c6b38	0.06162569
114	0xbdd7d1b4	-0.105380446
115	0x3edc815b	0.4306744
116	0xbcaffe5c	-0.021483593
117	0x3d9ea035	0.07745401
118	0x3e17060e	0.14748403
119	0x3e12da8f	0.14341186
120	0x00000000	0.0

b f4 [1, 11]
0	0x38d4481d	0.0001012238
1	0x388e6953	6.790706e-05
2	0x3e6a3782	0.22872737
3	0x390730b5	0.00012892748
4	0x3954ae54	0.00020282838
5	0x3e8ac8a6	0.27106208
6	0x3800c3f0	3.070006e-05
7	0x38e0a80e	0.00010712455
8	0x3eba108c	0.3634075
9	0x3d4c1dd5	0.049833138
10	0x3db0ce6e	0.08633123

c f4 [1, 11]
0	0x00000000	0.0
1	0x3dbbc0d7	0.09167641
2	0x3dbcf72e	0.09226833
3	0x3e25c1c7	0.16187201
4	0x3e25edbe	0.16203973
5	0x3edc548d	0.43033257
6	0x3edce307	0.43141958
7	0x3f1b24d8	0.60603094
8	0x3f264832	0.6495391
9	0x3f57150d	0.84016496
10	0x3f800000	1.0

Dyn_net.linearCell.weight f4 [3, 3]
0	0x406ffe9b	3.749915
1	0xbf8c137b	-1.0943445
2	0xbf5922c5	-0.8481868
3	0x402a2db5	2.6590397
4	0xbfc146c0	-1.5099716
5	0x3f0d9aec	0.5531452
6	0x3ff09b3d	1.8797375
7	0x4002dc68	2.0447025
8	0x3d56af55	0.052413303

Dyn_net.linearCell.bias f4 [3]
0	0xbe9597c3	-0.29217348
1	0x3d108c4e	0.035290055
2	0x3e6599b7	0.22421919

Dyn_net.BlinearCell1.0.weight f4 [1, 3]
0	0xbf634377	-0.8877482
1	0x3de6227a	0.11237045
2	0xb96a3724	-0.0002233652

Dyn_net.BlinearCell1.1.weight f4 [1, 3]
0	0xb9b85c4e	-0.00035163987
1	0xbd1ca088	-0.038239032
2	0xbf51cdd0	-0.8195467

Dyn_net.BlinearCell1.2.weight f4 [1, 3]
0	0x3df37254	0.11887041
1	0x3f4bed68	0.7965913
2	0xbeb50324	-0.3535396

Dyn_net.BlinearCell2.0.weight f4 [1, 3]
0	0xbc1071d1	-0.008816198
1	0x3cd13372	0.025537226
2	0x3e3acc65	0.18242033

Dyn_net.BlinearCell2.1.weight f4 [1, 3]
0	0xbf86a44e	-1.0518892
1	0x3b4bafb0	0.003108006
2	0xb98f3adc	-0.0002731894

Dyn_net.BlinearCell2.2.weight f4 [1, 3]
0	0xbf98c8b5	-1.1936251
1	0xbda67b8a	-0.08129032
2	0xbd1a25a3	-0.03763355

Dyn_net.transLayers.0.weight f4 [3, 6]
0	0x3fcd0ce6	1.6019561
1	0x3c1ca705	0.009561305
2	0xbf0b3b9a	-0.5438782
3	0xbda3ada2	-0.07992102
4	0x3e817452	0.25284058
5	0xbf78d50b	-0.9720008
6	0xbf036a4a	-0.5133406
7	0x3e277bbc	0.16355795
8	0xc0277b59	-2.6169035
9	0xbe535326	-0.20637187
10	0x3edbb07b	0.4290808
11	0x3e1a94a9	0.15095772
12	0xbfca8ff1	-1.5825177
13	0xc003a1c0	-2.0567474
14	0xbf45e2ec	-0.7729938
15	0x3e9635bf	0.2933788
16	0x3f16bd22	0.58882344
17	0xbdfb21e8	-0.122623265

Dyn_net.transLayers.0.bias f4 [3]
0	0xbf749bf9	-0.95550495
1	0xbf0323be	-0.51226413
2	0x3e672ce0	0.22575712

Dyn_net.outputLayer.weight f4 [3, 3]
0	0xbe918697	-0.28422996
1	0xbf8458c2	-1.0339587
2	0x3f80ed2c	1.0072379
3	0x3dbe9545	0.09305815
4	0xbf52fdda	-0.82418597
5	0xbfb81d0e	-1.4383867
6	0x3f601970	0.87538815
7	0x3de9e510	0.11420643
8	0x3e79bba9	0.24387993

Dyn_net.outputLayer.bias f4 [3]
0	0xbec24106	-0.37940234
1	0x3f57875d	0.8419092
2	0xbf2381e7	-0.6387009
